NIM_1D_hyper20250402/Results_vnim_heaviside_singular/41_101/quadratic/adv_params.npy (npy, 3896 bytes, 1 tensors)

array f8 [471]
00000000: eb1b a2ca 6651 77bf 78b2 dc8e 5c18 80bf
00000010: ffba c1a7 90a0 423f 534b d160 1b14 75bf
00000020: 214e 5830 079c 78bf 0c9e c507 f0b4 823f
00000030: a6dc db71 9972 81bf b5fd 9455 3c3a 65bf
00000040: ffe5 6704 9df7 80bf f509 2c30 26a8 67bf
00000050: 370f 0972 d7d3 49bf 7d20 ffc2 0098 6fbf
00000060: 3920 8630 e71f e0be 43b2 17ab 7ad6 82bf
00000070: 0699 31ca 4fef 74bf 8aa7 cef2 af4c 803f
00000080: 5669 671a 0b75 6b3f bb42 3bda 33ef 763f
00000090: e530 73af f1b9 713f d469 e466 c503 3dbf
000000a0: a420 4351 f9ea 283f 4d9a 0c43 d504 2cbf
000000b0: e265 1df1 86fe 61bf 4839 c639 3439 533f
000000c0: 0114 9c2d 4d33 49bf 0d50 9a5a c8ed 34bf
000000d0: 16a9 64a8 14ac 49bf 663e 6314 739d 543f
000000e0: fd59 9136 be74 67bf c936 1df3 b38e 403f
000000f0: 6c79 bcb5 c1f6 3f3f 80ef a97e 3fa5 4ebf
00000100: 9ebe aa1e 7c72 5f3f fb03 53f5 b90d 39bf
00000110: 2fbb 1be1 bd4b 6e3f 453b 72bc b5f2 42bf
00000120: 981f 1f13 5251 3a3f a0d6 60c0 4117 683f
00000130: 8468 6f7a fb64 333f 2c97 8f10 9729 603f
00000140: 2273 dceb 1d3a 52bf 5487 7da5 3155 53bf
00000150: 104a 560f 5b5b 313f 1998 0f59 b366 51bf
00000160: 8d3f 8956 262c 58bf 4868 59c1 7938 613f
00000170: 24a1 2ddd 0f61 703f b74d 15fa 2d50 673f
00000180: 685b da35 9300 713f 5545 6500 3fee 713f
00000190: b589 b253 a088 703f f0f3 7cd2 2d0b 11bf
000001a0: cff3 fb73 d602 6b3f 8abf 70f4 ca5e 4d3f
000001b0: bc84 31d9 4fad 303f e403 3970 c6b2 693f
000001c0: df11 0198 7ebe 693f c8dd 5dde 1828 42bf
000001d0: 622e 29f1 5344 54bf 6bec 6778 1aa3 5f3f
000001e0: 4e6b 649d 1f5c 05bf 72b2 069e e7fd 62bf
000001f0: 1c83 0345 f478 683f c62a 7294 c763 5b3f
00000200: 5bc9 24f7 0300 43bf 047b 2bd1 3812 423f
00000210: fa7b c9a5 00ac 553f 0bd3 7af3 3205 42bf
00000220: 6569 f867 cde9 673f a334 6463 9c5f 5a3f
00000230: 4e93 0e46 3ccb 5abf 271e 5fce 9be3 62bf
00000240: 30f5 6753 fd5c 683f 8301 4b87 628e 34bf
00000250: 1d1e dddb e1d0 293f 0ffb 7088 5320 60bf
00000260: 532d abfe 0615 5ebf 5525 14c9 3236 5ebf
00000270: af4e 73cb 40e8 433f 6315 d8c8 ba58 37bf
00000280: 9989 3f8a 7e79 5b3f 1642 4df6 45e0 eb3e
00000290: 0f95 0b42 5285 5abf 738a d4b5 8e92 2f3f
000002a0: 11d7 21af 0fca 52bf bab7 1648 b769 57bf
000002b0: 84e7 a8b5 05e4 273f 31c9 78e7 3dda 703f
000002c0: 227d 7ace 4b92 433f 8cba ae8b 9df0 643f
000002d0: 0f86 f734 d905 2cbf 1189 6366 e29d 36bf
000002e0: 085e d69a ec89 f63e 2e39 4e09 fab0 6f3f
000002f0: b3e6 00fe ff0c 753f 90e6 d6d0 fe0b 483f
00000300: 9f00 e07a 57f5 34bf a81c 5928 4c38 663f
00000310: e5c2 8ea1 b426 51bf 07cd 92b5 8764 5c3f
00000320: 0e07 097f 0c4b 1cbf 5ab8 e230 7da3 713f
00000330: 0380 3c77 167b 4ebf 2924 20a3 1eb6 10bf
00000340: b808 9447 ca38 373f 00e0 9e3c 25cc 62bf
00000350: f27b 8c55 2644 63bf 01e4 a590 38e0 58bf
00000360: 61d0 9e7e 2f49 3ebf 20a5 d78a 9b14 5bbf
00000370: 0740 1ed7 2ce4 3cbf 0c86 59b3 c841 613f
00000380: dfc5 b1a9 f6b5 58bf 9951 df5d 5d10 623f
00000390: 728e faf8 ae49 47bf 9aa7 b42f 57d6 32bf
000003a0: bb23 f3a9 3fc3 24bf bdac 9ea1 29a6 743f
000003b0: 41d1 0c57 c5ff 2ebf afb5 4efb 4714 763f
000003c0: b079 1f2d 5798 753f 2898 d0cd 1b80 673f
000003d0: 9a4d 9625 dd16 593f 8a4c 2475 ba21 6f3f
000003e0: 3bbf 58ee 5800 763f cbaa cb11 2a08 6a3f
000003f0: d8ce 189d e4e8 553f a667 2d37 1f1d 6b3f
00000400: 2b74 eb7a 91e6 7b3f d79e c799 e5d5 643f
00000410: a847 31d0 3dc0 763f f641 9443 7aa4 803f
00000420: 0242 4a6a 4b35 763f cb8e 1a2a e2e9 733f
00000430: cdfe 79d9 0c82 703f 5796 dd7d 43a3 703f
00000440: db26 c31d 0cbb 7f3f b037 dc02 a32b 743f
00000450: 0983 1fbd 52c7 7d3f 8a41 eb8b f723 713f
00000460: 8e8f d44b 9baa 783f 3c9c 1fc5 9385 843f
00000470: d6a1 64cc 5ff0 7b3f 525c 2e20 4049 203f
00000480: 2464 01d3 68c8 4a3f 6e07 317a 32db 523f
00000490: cf08 6b38 483e 683f 1186 f9d2 cce1 41bf
000004a0: de72 b980 4c09 673f b6c9 3c44 e906 613f
000004b0: 3429 c484 eb18 493f cc42 5e5d f01e 63bf
000004c0: ff49 0339 1cfc 6b3f 2a33 95dd db76 663f
000004d0: 3278 1817 23d2 61bf f6e5 0b94 27db 4a3f
000004e0: 0187 3faf 50a2 5dbf ecd5 4026 59f0 623f
000004f0: 4717 5882 27e8 45bf 8c71 fa52 eb80 37bf
00000500: d48c 4213 d359 603f 8c42 477e ee64 5a3f
00000510: 87e2 67cd 03f3 61bf f9ce b66a 53e4 56bf
00000520: db14 776d d09e 5abf 3249 7891 2d03 6a3f
00000530: 3202 df33 8826 57bf 7306 e62f 7c8f 603f
00000540: b342 4d4c bdba 49bf 7f0c 0f17 6ed9 4cbf
00000550: 20d3 214d 638f 22bf f8a8 2066 ca70 56bf
00000560: 43e5 bbaa 0a97 683f 14dd c420 8f7e 31bf
00000570: 1093 f886 f332 433f 1f45 995c 1a9c 733f
00000580: f5d1 24ab 263c 733f 2dc1 d3d8 23fe 6d3f
00000590: f632 e736 b424 4c3f cd6e 9846 42db 32bf
000005a0: 1ccc a013 2281 2fbf 0993 2d75 fa93 543f
000005b0: 696a e4ec 1388 753f d481 0234 c49e 5a3f
000005c0: ae91 d05f 16d5 443f 329f 29b5 de2d 40bf
000005d0: 8d6f e6fb 4078 67bf 5811 f719 f3f3 543f
000005e0: 4028 b528 6469 513f 5c98 d62f 7e03 523f
000005f0: b500 3c4a 8a0b 48bf 3338 613b 2812 693f
00000600: 4fa2 48cb a171 153f fbbb 1d93 f06e 453f
00000610: 67e3 8751 e5a8 09bf d533 5e16 02e4 563f
00000620: 48af 8b0d 1479 453f c90c dd17 fca8 63bf
00000630: 0ec1 d240 1d54 40bf 210f e97f 7733 1dbf
00000640: 66a5 17cd ec31 60bf 1478 c015 6172 703f
00000650: ba53 bc85 a773 5abf 212c ec3e b232 5bbf
00000660: aacd fd49 5831 3ebf 46a9 f223 5747 27bf
00000670: e931 bd49 d038 5e3f 3177 b1ac ff59 643f
00000680: 4cec 4bea f754 4bbf b04a 0282 d9cf 4dbf
00000690: 8221 8277 f2a4 723f 59b9 b280 14d5 603f
000006a0: e4e2 1578 4222 4d3f 7c2c 8055 5ca9 5c3f
000006b0: 07b0 8f70 fb39 5b3f 8bdb 2327 54d9 643f
000006c0: f5b7 4916 bdca 623f 5fd5 e89f 2f5d 6c3f
000006d0: 6fc3 618a 6f06 633f 4e0d ce1c e1e5 3bbf
000006e0: c767 209a 6107 553f 6ca6 f32e 1c0f 603f
000006f0: 041e 3c25 8105 3a3f 5373 a02a a231 6e3f
00000700: 867b 275d 188a 763f ff28 3db5 27bb 623f
00000710: 4af2 85a2 728d 603f 4dd9 8bfe 1e12 2f3f
00000720: b827 2ea5 d313 653f 1764 40ee cc1d 543f
00000730: 86a8 2713 62b7 51bf 1207 9967 7fe5 233f
00000740: 3a30 d11c eec5 47bf 32ea 6dad f8ab 583f
00000750: a863 379f 60db 3cbf 5be4 1a34 0b67 463f
00000760: ac46 50be f102 40bf 3d99 b0c8 2a98 743f
00000770: dafb 4765 ac4e 723f 6dc1 eae2 226a 6a3f
00000780: 01c1 b3e8 00ee 783f fa8b f8fc 9ad9 6f3f
00000790: 94ba 5161 1e53 6b3f 854c 633d e0b5 753f
000007a0: c044 c4a1 e2f8 673f 29c2 8ef4 39f8 653f
000007b0: 2aa2 802e 303c 6d3f 5cbc 7b45 bc3b 723f
000007c0: 1276 0322 f95f 803f c7d8 5024 47ad 7f3f
000007d0: eea0 5f6b a567 813f 04df 67e6 9590 813f
000007e0: acae 5091 128e 743f 98a3 3021 e0ad 843f
000007f0: 1b33 7e01 0bce 763f cf4f 6454 37dd 7b3f
-0.005692864922941058 -0.007858965978436702 0.0005684572529512654 -0.005146128603047045 -0.006008174973902964 0.009134173619442819 -0.008519362246700201 -0.0025912454990757124
-0.00828478498168561 -0.002887796961091422 -0.0007881929378261492 -0.003856660354333795 -7.688818656218052e-06 -0.00919814905770367 -0.005111037901860854 0.007958769414319073
0.003351709066220436 0.005599215077112414 0.0043277207216301005 -0.00044272965796357294 0.00019010823655763343 -0.0002137670831185594 -0.0021965632994749166 0.00117330646671439
-0.0007690550657747376 -0.00031934873059325035 -0.0007834530704589361 0.0012582420181849407 -0.002863284597462766 0.0005052927647086421 0.00048773030515460755 -0.0009352264435871088
0.0019193851573326213 -0.00038228788373478845 0.00369822583967707 -0.0005782496817959634 0.00040157560135555817 0.002940777226309546 0.00029593600851075146 0.0019729567034002717
-0.0011124889565003533 -0.0011799797848301612 0.0002648446382746148 -0.0010620833820609353 -0.0014753698725548964 0.002102124980223361 0.003998815506612883 0.002845849798782853
0.004150939026337543 0.004377599811350071 0.0040365469714366735 -6.501643349295073e-05 0.0032972515617743846 0.0008963099470573482 0.00025447081970326655 0.003137004446927426
0.00314259267182336 -0.0005540963581855346 -0.0012369937654907117 0.0019309767245647934 -4.074069481615224e-05 -0.0023183368468465077 0.002987362946541684 0.0016717385313166785
-0.0005798358309106287 0.0005514886309717364 0.0013227468799852358 -0.0005499361786492641 0.00291910284410084 0.0016097094754201978 -0.0016353691682777396 -0.0023057978714609187
0.0029740283746365823 -0.0003136625812594428 0.00019696003976775534 -0.0019685393813512263 -0.0018360679920757697 -0.0018439765884202448 0.0006075207119473259 -0.0003562408463440773
0.001676915716409688 1.3292344826305385e-05 -0.0016187003422428214 0.00024087898319987179 -0.0011468079724443229 -0.0014290132388441305 0.0001822716684090586 0.00411438161204307
0.0005972738408281145 0.002556140619581376 -0.00021379734469832753 -0.0003451040014522825 2.1494642785306286e-05 0.003868568756337918 0.005139350862060676 0.0007338518350287915
-0.0003197992872401387 0.0027123916104617347 -0.0010468257880626383 0.0017329526220180595 -0.0001079298379034444 0.004306305911241004 -0.0009302005478026846 -6.374895090756394e-05
0.0003543371054349864 -0.002294609764216915 -0.0023518322672226805 -0.0015183021920093245 -0.00046212586914440827 -0.001652862450436672 -0.0004408463929559407 0.0021065635617538766
-0.001508227235515462 0.002205068928541287 -0.0007106880529658811 -0.00028743389676099686 -0.00015840675494008062 0.005041277525303642 -0.00023650440155055 0.005390435388944167
0.0052722363779750675 0.0028687041326689484 0.0015313300740203762 0.00380026261803718 0.0053714250439467716 0.003177721182841741 0.0013372643046637902 0.0033097848585556698
0.00681168392358437 0.0025434002293315094 0.005554429491057812 0.00812621611342566 0.005421919432266 0.0048617205190201835 0.004030275529316629 0.004061950339609397
0.007746741608750186 0.004924427759545866 0.007270167539872537 0.004184691408866912 0.006022078157261647 0.010020403340560084 0.006821035587826837 0.00012425334724916693
0.0008173477017506853 0.0011508934919821317 0.0029593859247550656 -0.0005457162969372838 0.0028120512195485134 0.0020784908282618043 0.0007659101479771447 -0.002334088766425024
0.0034161139702544303 0.002742223191182798 -0.00217539647634537 0.0008195822957468002 -0.0018087184844194917 0.0023118725967161604 -0.0006685440936855324 -0.0003586363336383284
0.0019959566653412284 0.0016109780345809092 -0.0021910738244027036 -0.0013972105615324677 -0.0016247783113255063 0.0031753435139389103 -0.0014129953483320687 0.0020215440301292686
-0.0007852005297569103 -0.0008804118680178079 -0.00014160239385643206 -0.0013696648170574127 0.0030017097795932714 -0.00026694292388947214 0.0005859078500561627 0.004787543273395727
0.0046960363854862035 0.003661222470889089 0.0008588676408237395 -0.000287727051359471 -0.00024035969710353787 0.0012559839130627545 0.005256727059782842 0.001624766926433198
0.0006357535600086028 -0.0004937493743683906 -0.0028649586885886647 0.0012788652455678253 0.001062724887406677 0.0010994655889162907 -0.0007337975734742682 0.00306041581919827
8.180189144780494e-05 0.000654094188787257 -4.8942087406750674e-05 0.0013971348175545368 0.0006553028025257724 -0.0023999141402853735 -0.0004983084524124175 -0.00011139313571911478
-0.0019769310972505448 0.004015330541760082 -0.0016144882164941103 -0.001660036152034257 -0.00046070485586043963 -0.00017760218358848552 0.0018446001112862825 0.002484320988101717
-0.0008341036342182167 -0.0009097873735462638 0.00455183709721785 0.002054729504002467 0.0008890938335489288 0.001749363107594686 0.0016617732492205676 0.0025450366603040945
0.0022939389330565115 0.0034624033135296907 0.0023224047209215374 -0.0004256891814337819 0.001283498110302693 0.0019603300530562275 0.00039705660786679164 0.0036857764544166254
0.005502791568203663 0.0022865081354314083 0.0020205725633657733 0.00023705128048563188 0.0025729306884771617 0.0012278081203531738 -0.0010813195955230739 0.00015179805977721305
-0.0007254994067209593 0.001505844925957189 -0.00044032200750404116 0.0006836704926264191 -0.0004886322391277251 0.0050279303787077985 0.004469560070446266 0.0032244378447431805
0.006086352873566848 0.003887942038788503 0.0033355325090760977 0.005300403534607705 0.002926294937545565 0.002681840127898978 0.0035687390373093835 0.004451499400359795
0.007995554304609551 0.007733610055814028 0.008498470629959756 0.00857655629532373 0.005018303422769026 0.010097266209486297 0.005567591659098504 0.006802765017955139
